models/05_going_modular_script_mode_tinyvgg_model.pth (torch, 28999 bytes, 10 tensors)

conv_block_1.0.weight f4 [10, 3, 3, 3]
000000 01 b4 47 be 99 38 92 ba 6e f1 fd 3b 65 84 a8 bd
       -0.1950226 -0.0011155783 0.007749728 -0.08228377
000010 95 f8 67 be 2e 09 3e bd 19 8b ea 3c 50 8b 49 be
       -0.2265342 -0.046395473 0.02863078 -0.1968205
000020 f2 e4 a6 3d 6f d8 bd 3d 01 64 12 bd 49 9d 13 bd
       0.081491366 0.09269797 -0.035739902 -0.03603867
000030 43 05 85 3c a7 3f d5 3d 68 00 cb bd 1e fb 05 be
       0.01623786 0.10412531 -0.09912187 -0.13084075
000040 bb 62 18 3d 3d 9f 0a be 43 bf 28 be eb 78 26 3c
       0.03720353 -0.13537307 -0.1647921 0.010160665
000050 19 69 76 be 39 a6 6f bd 09 a7 08 3d 0e 76 b9 bc
       -0.24063529 -0.05850813 0.033362422 -0.0226393
000060 7d 85 c7 bb 17 00 b7 bd 66 ad 01 be 75 47 a0 3c
       -0.006088911 -0.08935564 -0.12663803 0.019565323
000070 72 82 32 3e d5 ed 10 be d0 03 b2 bd 29 db b9 bc
       0.17432573 -0.14153226 -0.086921334 -0.022687512
000080 c1 02 d2 bd c2 ef 83 3d ed d9 97 3c 46 57 1c 3e
       -0.102544315 0.064422145 0.018536532 0.15267667
000090 2a 94 f7 3d 92 96 33 bd 12 1a 73 bd b6 7f 48 be
       0.12088807 -0.043844767 -0.059351034 -0.19579968
0000a0 e6 25 d3 3c 02 c5 30 3d 61 1e 75 3d 56 30 0e be
       0.025774907 0.04315663 0.059843425 -0.13885626
0000b0 8c fe b4 bd f0 a9 9a 3d f2 ac 47 be 26 cb 30 be
       -0.088376135 0.07551944 -0.19499567 -0.17264995
0000c0 2e 26 2c be 23 99 15 bd 64 3e 06 be 02 e3 4d be
       -0.1681144 -0.036522996 -0.13109738 -0.20106128
0000d0 82 1e da 3d 74 65 da 3c 74 1b d9 3d 91 14 17 be
       0.1065035 0.026659705 0.106009394 -0.14753939
0000e0 16 ec 07 be fb c9 34 3e 82 20 19 be 8a 42 03 be
       -0.13273653 0.17655174 -0.14953807 -0.12818351
0000f0 0b 3f d1 3d 2e b8 12 3e 14 8f a7 3d 88 11 f1 3d
       0.102171026 0.14328071 0.08181587 0.11770922
000100 98 3f 21 be 55 9b ac be a9 50 b5 bd 2b df 93 be
       -0.15746915 -0.3371226 -0.08853275 -0.288812
000110 bb 3f 71 be 44 37 58 3e 8c 23 67 be 9d 6f 63 be
       -0.23559467 0.21114832 -0.22572154 -0.22210546
000120 fd 0d d8 bd 39 10 0e 3e e8 7b 0f 3e e2 fe a4 bd
       -0.10549543 0.13873376 0.1401211 -0.080564275
000130 ed 4c 2d 3e dd 52 a4 bd b0 b5 7b 3e ed 3c ab 3d
       0.16923876 -0.080236174 0.24581027 0.0836123
000140 c3 24 74 bd 07 06 41 3e 7d 11 40 be cd 65 02 3e
       -0.05960537 0.18849955 -0.18756671 0.12734146
000150 c7 b2 ac bc 0f 06 27 3d ba 5a 0e 3e 04 06 23 3e
       -0.021081341 0.040777262 0.13901797 0.15920264
000160 9b 1e 29 3d 09 29 bb bd e8 ac 66 3d 57 c3 83 3d
       0.041288953 -0.09138686 0.05631724 0.064337425
000170 b5 4c 83 3c c1 c2 82 3d 0f b1 db 3b bf 4b 25 3d
       0.016027788 0.063848026 0.0067044566 0.04035544
000180 30 2b 46 3e a6 a5 06 be 4f 36 10 be 56 bf 38 be
       0.19352412 -0.13149127 -0.14083217 -0.18041739
000190 46 67 3e be ca 20 3a be 91 f0 9e bd 80 0a 86 3d
       -0.18594083 -0.1817657 -0.07760728 0.065449715
0001a0 88 35 cc 3c cf f1 ca bc 8a 5b ab bd 16 31 86 be
       0.02492787 -0.024773506 -0.08367069 -0.26209325
0001b0 a5 43 85 bd b7 48 85 3d ce 42 aa 3d 0a 29 06 3e
       -0.06507043 0.0650801 0.08313523 0.13101593
0001c0 de 35 bf 3c 53 4a c3 3d f6 28 1d bc 16 41 35 bd
       0.023341116 0.095356606 -0.009592285 -0.044251524
0001d0 0b 43 68 bb 09 c3 12 bc c3 1b aa bd 3b 72 a5 bd
       -0.0035440351 -0.008957633 -0.083060764 -0.08078428
0001e0 b7 cb 1f be 8d 78 6a bd f7 01 ea bd 7e 9d 1e be
       -0.15605055 -0.057243872 -0.11426156 -0.15489766
0001f0 7b 94 30 be 3a 8f 3f 3d 24 40 15 3e 7b 4d b0 bd
       -0.17244141 0.04676745 0.14575249 -0.08608528
000200 1d 6b b9 bd 86 b2 58 3d 91 f8 6d 3d 39 d1 2a 3e
       -0.09053633 0.05290463 0.05809838 0.16681375
000210 25 fe e4 bc c6 be 4d be 2f 01 39 bd f7 b6 9a bd
       -0.027953217 -0.20092306 -0.045167144 -0.07554429
000220 40 9b 33 be c0 bb 65 bd 53 42 e2 bd 85 ab c1 bd
       -0.17539692 -0.056087255 -0.110478066 -0.09456543
000230 fd c3 d8 3d 74 03 b0 bd 8a 15 f3 bd a1 c7 d2 bd
       0.10584257 -0.08594409 -0.118693426 -0.102919824
000240 cf 04 89 3e c5 ce fb 3c 0c 4f 5b 3e fc 08 1e 3e
       0.2676148 0.030738244 0.21416873 0.15433115
000250 9d 9b 20 bc aa a3 2c 3e 68 d6 a9 3e 36 fc e2 3d
       -0.009802726 0.16859308 0.3317139 0.11083262
000260 63 96 8c 3e f0 34 12 bd 80 69 dd bd fc 38 57 be
       0.27458486 -0.035695016 -0.10811138 -0.21017832
000270 8f 9f 2d be df 09 98 be 0a a8 02 bd 7c e9 45 3d
       -0.16955398 -0.2969503 -0.031898536 0.04831837
000280 91 03 27 bc 11 e2 17 3e 76 2f 96 3e af 88 34 3e
       -0.010193721 0.14832331 0.29333085 0.17630266
000290 2c ed 1e bc 78 2e 02 3e b2 d5 1b 3e 3a 6b 47 be
       -0.009700101 0.12713039 0.15218237 -0.19474497
0002a0 fd 48 7f bd fa ae 7a 3e 39 91 f0 3d 3a 7c 98 3d
       -0.062325466 0.24480811 0.11746449 0.07445569
0002b0 17 99 0f 3e 90 29 c4 bd 8d 7c c8 3d f7 1b 45 3e
       0.14023243 -0.0957824 0.09789381 0.19248949
0002c0 b0 5f 5f be 2a 5d 46 be f0 77 15 3e 02 f6 bd 3d
       -0.21813846 -0.19371477 0.14596534 0.09275438
0002d0 7e 08 0a be c4 55 24 3d 7d ad 15 be 99 0c 25 3e
       -0.13479802 0.040120855 -0.14616962 0.16118087
0002e0 c1 ce 0f be f9 7f 8a 3c ab 73 4a be 0a 73 49 bd
       -0.14043714 0.016906725 -0.19770686 -0.049181975
0002f0 c3 24 51 be 24 00 fd bd e5 66 ae bd 1b ad 31 3e
       -0.2042418 -0.123535424 -0.08515719 0.17351191
000300 30 3d 6a 3d 9e d1 44 be 70 46 d1 bd bc 31 3c be
       0.05718726 -0.19220588 -0.10218513 -0.18378347
000310 00 b8 6d 39 24 29 c9 bd 95 c6 e6 bd 30 a0 a9 3c
       0.00022670627 -0.098223 -0.11268345 0.020706266
000320 20 38 29 be 90 7d 3f bd 88 29 47 bd 1d f0 29 be
       -0.16525316 -0.046750605 -0.04862359 -0.16595502
000330 bb 94 c3 bd 4c 67 13 bd b8 22 fb bd 30 b1 30 3c
       -0.095498525 -0.035987183 -0.122624815 0.010784432
000340 fb 54 ba bd c9 91 13 be e7 bb 40 3e 3d 9f 26 be
       -0.0909824 -0.14411081 0.18821679 -0.16271682
000350 85 bb 3e 3e b0 24 2c 3c b9 47 27 3e 15 92 25 3e
       0.1862622 0.010506794 0.16335954 0.16169007
000360 b8 5c 74 3d a5 bb 3b be 44 15 9d 3d 80 e3 1d 3e
       0.059658736 -0.183333 0.07670072 0.15418816
000370 d7 48 20 3e 04 1b d5 bd 0d a9 8e 3b 0a e3 08 be
       0.15652786 -0.104055434 0.0043536485 -0.13367859
000380 d9 1a 67 be 75 ed 6c bd ef ce 53 3d 62 e0 11 be
       -0.22568835 -0.057843644 0.05171102 -0.14245752
000390 a2 ae 9a 3d 10 7a 1a be e0 89 c2 b9 cf b2 da 3d
       0.0755284 -0.15085626 -0.00037105288 0.10678636
0003a0 36 19 6e be 94 3a 66 3d 3a 7d 3f 3e 0b 95 18 3e
       -0.23251805 0.05620821 0.18700114 0.14900605
0003b0 76 83 37 bd a2 91 7d 3e b1 7f 35 3e e7 8e 10 3e
       -0.044803105 0.24762586 0.17724492 0.14117013
0003c0 81 4a 14 3e 58 cd 3f 3e 4c cd c5 3d 84 a5 f9 3d
       0.14481546 0.18730676 0.09658298 0.12189773
0003d0 38 a1 d0 bd 14 1d e2 3d 80 27 37 be 6b 43 57 bd
       -0.10187 0.110407025 -0.17886162 -0.05255453
0003e0 85 ae 01 3e f1 13 cd bd e5 c1 90 be f2 14 2a be
       0.1266423 -0.10013569 -0.2827293 -0.16609553
0003f0 b8 39 af bd c6 36 82 3e 18 16 7b 3e bd 2d 7c be
       -0.08555931 0.25432414 0.24520147 -0.24626823

conv_block_1.0.bias f4 [10]
000000 0d 93 5d bc ab 80 bf bd 2a 9d 2f 3d d4 37 b7 3d
       -0.013523829 -0.09350713 0.042874493 0.08946195
000010 cb 8f ab bd d5 e5 98 bd fa 95 67 bd e4 9b 3a be
       -0.08377036 -0.07465712 -0.056539513 -0.1822353
000020 c1 70 99 3d ff e3 a9 3c
       0.07492209 0.0207386

conv_block_1.2.weight f4 [10, 10, 3, 3]
000000 61 da 83 3d 29 07 bd 3d fa 09 48 3d 20 05 9c bc
       0.06438137 0.09229881 0.04883764 -0.019045413
000010 f3 cb 97 3d be f5 49 3d 30 c1 86 3c 00 c6 68 bd
       0.07411947 0.049306624 0.01644954 -0.056829453
000020 00 5b a4 bc 46 ed 29 3d 7e 9d 2b 3d 60 7e 65 bd
       -0.020062923 0.041486047 0.041898243 -0.056028724
000030 90 c0 da bc 95 fb a6 3d 4c db ca bc 82 68 30 3d
       -0.02670315 0.08153454 -0.024762772 0.043068416
000040 f0 2f 64 bd b2 59 49 3d 0a ff 36 3d 21 9f 8e bd
       -0.05570978 0.049157806 0.044676818 -0.06963945
000050 2e a4 bf bd 63 46 40 3d 9e 6c 58 3d 0d 5d 2c bc
       -0.09357487 0.046942126 0.05283796 -0.010520232
000060 15 1d ac 3c 85 86 bb 3b 8c 92 2a 3b 86 e3 d2 bc
       0.021009961 0.005722823 0.002602729 -0.025743257
000070 0b 6a b8 bd b9 45 9d bc 30 28 91 bc 24 73 9e 3d
       -0.09004601 -0.019198285 -0.017719358 0.07736805
000080 9c fc ce 3c af 1a 5c bd 03 f7 aa bd a3 fe 47 bd
       0.025266938 -0.053736385 -0.08347895 -0.048826825
000090 83 62 aa 3d 6e c2 28 3d f8 04 45 bc 35 41 c5 3d
       0.08319571 0.041201048 -0.01202511 0.09631578
0000a0 b1 29 a6 3d 6c 49 be 3c 38 d8 56 bd 20 8f cd 3b
       0.08113421 0.02322837 -0.052452296 0.0062731653
0000b0 c8 53 02 3c 19 8c 16 be 07 c8 93 bd 54 32 62 3a
       0.007954545 -0.1470188 -0.072158866 0.00086287153
0000c0 dd 45 93 3a 03 63 0a 3c cf 59 1c bd 35 cf cd bc
       0.0011236031 0.008446458 -0.038171586 -0.025123218
0000d0 e1 eb 97 bc f4 62 9a bd ef 62 ab bb 38 05 80 bd
       -0.018545093 -0.07538405 -0.0052302997 -0.062509954
0000e0 47 aa ae bd 7e 5f be 3d a3 77 89 bd 92 c8 69 bd
       -0.085285716 0.092955574 -0.06712272 -0.057076044
0000f0 b8 90 d1 bb 0c 52 8a 3d 16 14 5c bd bb a2 aa 3d
       -0.0063954256 0.067539304 -0.053730093 0.083318196
000100 ab 94 c2 3d 2f 1c ae 3d 3e e4 08 bd b8 df 2a bd
       0.095010124 0.08501469 -0.033420794 -0.04171726
000110 00 bc ae 3a b0 cb 1c bd 3e 10 00 bd 7e 5f 36 3d
       0.0013331175 -0.03828019 -0.03126549 0.044524662
000120 c6 33 d2 bd 46 6e cd 3d 2c cf 74 bd f9 f0 85 bd
       -0.10263781 0.100307986 -0.059767887 -0.065401025
000130 7f 77 b3 3d 0e b3 23 3d ea 26 ce bc 21 d6 1b bd
       0.087630264 0.03996568 -0.02516504 -0.038046006
000140 50 48 d3 bd 63 71 95 3d b0 85 02 be f0 4d 9c bb
       -0.10316527 0.072970174 -0.1274631 -0.004770033
000150 f9 c5 a5 bb b5 d4 4b bd 6d 0a a2 3d d4 bd 07 be
       -0.0050590006 -0.0497634 0.07912145 -0.13256007
000160 22 83 96 bd 01 2c bc 3b dd e1 f1 3d 9d 17 be 3d
       -0.0734923 0.0057425504 0.11810658 0.092818476
000170 cc 94 ac bd 38 c6 38 3d 80 16 5f 3d 7b f1 84 3d
       -0.08426818 0.04511091 0.054464817 0.06491371
000180 ae 70 cc bd ae 94 d5 bb 47 28 7e bc 17 8f 47 bd
       -0.099824294 -0.006517968 -0.015512533 -0.048720445
000190 e4 cf 97 3d 55 d7 3a 3b 82 c6 b2 bd de 4d 97 bd
       0.07412699 0.0028509696 -0.087292686 -0.07387899
0001a0 c2 1f e0 3c c4 de 4a bd 75 31 8d 3d 8d 1b 33 bc
       0.027358893 -0.049528852 0.06894199 -0.010931862
0001b0 38 ff a4 be 7b c3 fa be 03 c1 41 bf 30 72 4b 3d
       -0.32225966 -0.48977265 -0.7568514 0.049669445
0001c0 cd fb 6c be b5 21 f3 be 71 48 76 bd 19 b9 8c be
       -0.2314293 -0.47486654 -0.06012768 -0.27484968
0001d0 15 fd 26 bf 85 0c b9 3c a6 ec cc bc ec 1b db bd
       -0.6522992 0.022588978 -0.025015187 -0.10698685
0001e0 cc 2d 5d bd 85 4b bc bd b1 c7 08 3d 18 87 db 3d
       -0.053998753 -0.09194092 0.033393566 0.107191265
0001f0 62 3d b5 bc 34 f3 98 bd 70 e8 84 3d 5a 0f cc 3d
       -0.022123996 -0.07468262 0.064896464 0.099638656
000200 b5 6a 2b 3a 85 23 3b bd dd 87 89 bd 27 75 6f 3d
       0.0006539033 -0.04568817 -0.06715367 0.058461335
000210 b6 db 4c bc 22 64 cd 3d 4d 2c b1 3c ab e7 16 3e
       -0.012503555 0.100288644 0.02162757 0.14736812
000220 67 67 21 3d f9 d0 bd 3d 24 29 9e 3d e0 f2 e7 3c
       0.039405253 0.09268374 0.07722691 0.028314054
000230 97 aa f1 3b 41 7e bb 3d 24 e6 d8 3c cd 0f 8a 3d
       0.007375072 0.091549404 0.026476927 0.06741295
000240 e9 57 2a bd 38 f7 6c 3d 16 08 e0 3d 80 d9 bb 3c
       -0.041587744 0.057852954 0.10939042 0.02293086
000250 17 92 a7 3c 17 d5 bf bc b0 1b 9e 3d 37 c7 53 3d
       0.020455403 -0.023417039 0.07720125 0.051703658
000260 0d 06 04 3e 53 8d b8 3d 44 86 a3 bc 11 e0 b6 3d
       0.12892933 0.090113305 -0.019961484 0.08929456
000270 f8 a5 6d bd e8 78 49 bd ec 63 bd bd 9c dd 94 bd
       -0.05801961 -0.04918757 -0.09247574 -0.07268831
000280 01 9d b3 3d 0b 27 9e 3d ba 43 7f bd 9b 23 cb bc
       0.087701805 0.077222906 -0.06232045 -0.024797251
000290 27 6a 08 3e 78 38 1f 3d 75 5f 60 bd 62 69 0a bd
       0.13321744 0.038872212 -0.054778535 -0.033791907
0002a0 52 d6 61 3d cb b8 e2 3d c9 4a 0d 3e 80 a6 82 bd
       0.055136032 0.11070403 0.1379806 -0.063794136
0002b0 71 d5 9c 3d bf 27 6b bd f3 a2 52 bc 6b b7 24 3d
       0.07657898 -0.05741095 -0.012856233 0.040213984
0002c0 cf de 97 3d bb 53 81 be ae bc a4 3b d4 13 10 bc
       0.07415544 -0.25259194 0.005027375 -0.00879379
0002d0 54 c2 10 3d 8c 76 52 3d 92 fd 90 bd 30 75 84 bc
       0.035341576 0.051382586 -0.07079615 -0.01616916
0002e0 14 f8 33 bd 8f fd d0 bd a4 fb ea 3c cb 60 ad 3d
       -0.043937758 -0.102046125 0.028684445 0.084657274
0002f0 d6 e9 b4 bc c7 c1 78 3b ee 2e 31 3d d3 30 14 bd
       -0.022084158 0.0037957297 0.043257646 -0.036179375
000300 40 bc f5 bc f4 5d 2c bd a7 39 d7 3d 4a b5 de 3b
       -0.029996991 -0.04208179 0.10509043 0.0067965137
000310 a5 72 4e 3d d0 f2 59 bc 21 0c d9 be 4a 9d 5f bf
       0.050402302 -0.01330252 -0.42392066 -0.8734938
000320 f1 50 78 bf a0 12 df bd 1b 98 bf be 20 e0 17 bf
       -0.96998507 -0.10892224 -0.37420735 -0.5932636
000330 fb 30 17 be 60 e8 d1 be 74 4c 2a bf ec 84 9b 3d
       -0.14764778 -0.409976 -0.6652291 0.07593712
000340 0c 38 be bd 9b a9 97 be 18 73 45 3d e6 d4 20 3e
       -0.09288034 -0.29621586 0.048205465 0.15706214
000350 63 04 1a 3d e8 56 d0 3d 89 b2 1c 3e 00 9b 09 be
       0.03760184 0.10172826 0.15302481 -0.13438034
000360 17 e8 d1 3d e2 12 df 3d 3e 3a 22 bd 84 f4 b0 bd
       0.10249346 0.108922735 -0.039606325 -0.08640388
000370 a5 7b 8e 3d 65 09 b6 bd ca 01 ce 3d 3e 88 08 3d
       0.06957177 -0.088885106 0.10058935 0.033333056
000380 95 92 9f 3d 01 07 47 3d 9e 61 48 3e 34 21 69 bd
       0.0779163 0.048590664 0.19568488 -0.05691643
000390 d0 91 ee bd 5b 30 5a 3e 40 33 84 3d 38 98 e1 bd
       -0.11648905 0.21307509 0.06455088 -0.110153615
0003a0 c4 46 9a bd 74 fe 4d be 3d dd c3 bd 4c 81 e9 bd
       -0.07533029 -0.20116597 -0.09563682 -0.114016145
0003b0 11 7d b0 3d 74 e5 eb 3d 9f 09 10 be d5 cd f8 bd
       0.086176045 0.11518374 -0.1406617 -0.12148634
0003c0 27 4d 22 3e 39 ae 82 bc 49 31 b1 3d 58 75 c4 bd
       0.15849744 -0.015952216 0.086519785 -0.09592694
0003d0 36 b5 a9 bd 60 5d e5 3b e8 3a 59 bd 4a 7c 02 3d
       -0.08286516 0.0069996566 -0.053034693 0.031856813
0003e0 fc cf f6 3c d8 c8 af bd 07 23 b6 3d 68 ee c6 bd
       0.030128472 -0.0858323 0.088934 -0.09713441
0003f0 1b c1 ed 3d b0 0a 84 bd 8a d5 cf bd b0 8d d3 3b
       0.116090976 -0.06447351 -0.10148151 0.0064560995

conv_block_1.2.bias f4 [10]
000000 35 42 92 bd 62 9a da bd 41 d2 81 bd 8a 4c 41 3d
       -0.07141534 -0.106739774 -0.06338931 0.047192134
000010 53 03 82 3c 0b 2d 45 3d 95 05 ba 3d cc 37 e3 bd
       0.015870726 0.04813866 0.09083096 -0.11094627
000020 f3 eb 5a bd 25 46 2c bd
       -0.053447675 -0.042059083

conv_block_2.0.weight f4 [10, 10, 3, 3]
000000 62 0e 5c 3c ac e9 d5 bd 5a 9b f1 3d 49 16 b8 3d
       0.0134311635 -0.1044496 0.11797209 0.089886256
000010 7f 1e fd 3d 29 c1 90 38 54 ff 7c bc e8 90 5e bd
       0.12359332 6.902434e-05 -0.015441734 -0.054337412
000020 b1 3c cf 3d 26 20 9b 3d 10 93 a6 3d c9 04 68 3d
       0.10118998 0.07574491 0.08133519 0.05664519
000030 92 ae 06 bd b2 9e 8e 3d b4 b0 de bb 4d 7b 20 bd
       -0.032881327 0.069638625 -0.006795967 -0.03918009
000040 8e e3 3f 3b a1 5c 9d 3d 23 31 f9 3d 82 b0 51 3e
       0.002927992 0.07683683 0.12167575 0.20477489
000050 e7 08 62 3e d6 c6 4c 3e fa 4a 81 3e 16 19 03 3e
       0.22073708 0.19997725 0.25252515 0.12802538
000060 e0 44 87 3e dd e7 1d 3e c3 dd 1f 3e 67 2b 6d 3d
       0.26419735 0.1542048 0.15611939 0.05790272
000070 43 37 4a bd 12 99 83 3d 00 37 68 bc aa 19 a2 3d
       -0.049369108 0.0642568 -0.014173269 0.07915051
000080 0e e8 f6 bd 5e 80 cf bb c6 4e 4e 3d 6b 06 92 bd
       -0.1205598 -0.0063324412 0.050368093 -0.071301304
000090 c5 48 a4 bd 27 12 94 bd 69 b8 a1 3d 93 e7 a2 3a
       -0.08021692 -0.07230025 0.078965016 0.0012428634
0000a0 a4 2c a8 bd 1d 96 81 3c 57 0c 1c bd 87 9d ba bc
       -0.082116395 0.01581865 -0.038097706 -0.022780193
0000b0 26 52 a4 3d 1f 2b aa bd 7c cc 1e bd 15 3d 75 3d
       0.08023481 -0.08309006 -0.03876923 0.059872705
0000c0 cb ff 0b bd 59 b1 a9 bc 75 39 c6 3c ba 5b 5e bd
       -0.03417949 -0.020714449 0.02419732 -0.054286696
0000d0 31 19 b8 3d 21 17 8a 3d 48 39 18 3e a1 b8 30 3d
       0.0898918 0.06742693 0.14865601 0.043144826
0000e0 37 c9 de bc 40 d1 8e 3d fe a2 cf 3d 14 83 d7 3c
       -0.027195556 0.06973505 0.1013851 0.02630762
0000f0 7b 2d 1b 3e 05 a0 1e 3e 33 29 7b 3d 09 7d 93 3d
       0.15154068 0.1549073 0.061318588 0.07201583
000100 b9 34 77 bc b5 e6 57 bd 64 da d8 3d 39 90 77 3d
       -0.015088254 -0.052710254 0.1058853 0.060440276
000110 19 47 d7 3d 73 87 99 bd 0d af 04 bd ed 51 7e bd
       0.10511608 -0.07496538 -0.032393504 -0.06208985
000120 45 52 8e 3b 74 44 85 bc 6c 30 18 3e 5b 43 6e bc
       0.0043433034 -0.016267993 0.14862221 -0.014542426
000130 71 99 7b 3c df 99 35 3e 2d 62 16 3e a3 00 73 bd
       0.0153564075 0.17734478 0.14685889 -0.05932678
000140 84 fc 21 3d 07 34 d6 3d fb 8b f9 3d c7 36 aa 3d
       0.03954746 0.10459142 0.12184902 0.08311229
000150 25 d0 5f bb 5a d6 ce 3c b0 a7 92 3d 0f 41 62 3c
       -0.0034151163 0.025248695 0.0716089 0.0138094565
000160 91 c2 00 3c fe c2 7c bc 2b 63 91 3a 19 07 f7 bc
       0.007858888 -0.015427349 0.0011092176 -0.030154752
000170 c6 41 2a 3d 9a 7b 8e 3d 98 0b 69 3d 0f e1 04 3e
       0.041566633 0.06957169 0.056895822 0.12976478
000180 8f 72 a3 bd 0b 87 d7 3c 8b 8e 62 3d e9 e0 98 3d
       -0.07980835 0.02630951 0.05531172 0.07464773
000190 3f 35 ca bc 28 1a bd 3d 61 dd af bd 13 16 d0 3d
       -0.024683593 0.092335045 -0.085871466 0.1016046
0001a0 61 79 5b 3d 91 1e c2 3a fe 11 ee 3d 47 08 61 bd
       0.053582553 0.0014810135 0.116245255 -0.054939535
0001b0 5a 5e c8 bd 58 9a fb bd 8d 59 b2 3d f6 2f 0d 3d
       -0.09783621 -0.12285298 0.08708487 0.034469567
0001c0 70 78 53 3a 95 62 ca 3d 8f 32 fb bb 20 b5 07 3d
       0.0008066958 0.09882084 -0.007665939 0.03313172
0001d0 ea 9b 5f 3e fb d3 59 3d 73 e2 b8 bd 53 18 79 3d
       0.2183682 0.053180676 -0.09027567 0.060814213
0001e0 75 aa 75 3d 59 ce b2 3d ee e8 09 3c ff 58 77 3d
       0.059977014 0.08730764 0.008417351 0.060387608
0001f0 f5 ac b0 3d d8 9b f2 bc 49 38 48 3d b6 8e 30 3c
       0.08626739 -0.029615328 0.048881803 0.010776212
000200 7d 60 dd 3d b5 c3 b8 3d 36 47 75 3d 85 3b 3b 3d
       0.10809419 0.09021703 0.059882365 0.04571106
000210 21 ab 9c bd 15 72 4e 3d df 67 cc 3d ec 9f b8 bd
       -0.07649828 0.050401766 0.09980749 -0.09014878
000220 ba 8f 40 3c a7 95 9a 3c fd 59 af bd 7b 06 a5 3d
       0.011753017 0.018870188 -0.08562086 0.08057877
000230 fc d8 c7 3c 10 7e 14 3c 95 89 8e bd 6e 56 99 3d
       0.024395458 0.009063259 -0.069598354 0.07487188
000240 f7 5b ac 3c 6b e8 2e 3e f1 25 15 bd 17 c8 18 3e
       0.021039946 0.17080848 -0.036413137 0.14920078
000250 25 3e 1f 3e 6d 28 1b 3e 35 85 ab 3d 34 09 0d 3a
       0.1555105 0.1515214 0.083750166 0.00053800945
000260 ad 1c c9 bc e1 b5 16 3d 72 0b 6d 3d dd 98 09 3e
       -0.024549806 0.036794547 0.057872243 0.13437219
000270 70 ed a7 bb dd ae f7 3d 2f e4 2b 3d 22 1e 06 3d
       -0.0051247403 0.120938994 0.04196566 0.03274358
000280 41 6e f8 bc c4 7a c7 3c fa 77 9b bd 40 0d 39 3d
       -0.03032601 0.024350531 -0.07591243 0.04517865
000290 8b 2f ec 3d 2e 81 0e be 92 b9 e6 3d 57 3e b6 3c
       0.115325056 -0.13916466 0.112658635 0.022246523
0002a0 65 e2 c3 bd fe 27 f2 3d 0a 85 4f 3e b3 b9 57 3d
       -0.09564666 0.11824034 0.20265594 0.05266733
0002b0 35 65 e9 bd 06 da b8 bd 2d 07 06 bd 6b 4c bf 3d
       -0.11396257 -0.0902596 -0.032721687 0.093407474
0002c0 6a 8c 17 3e 42 a6 af 3b 47 6c 97 bc 4d e4 0f 3e
       0.14799657 0.0053603956 -0.018484248 0.14051934
0002d0 73 01 6e 3d 49 d1 ad bd 4d 0b 34 bd ab ca a0 3d
       0.05810685 -0.084871836 -0.04395609 0.07851156
0002e0 3c 57 52 3c 73 55 9b 3c 7d 92 20 bd 93 bb 24 bd
       0.012838181 0.018961644 -0.039202202 -0.040217947
0002f0 0b 58 0c 3e 83 fd 15 3e 50 f7 c8 3d 70 37 e5 3d
       0.1370546 0.14647488 0.09812796 0.111922145
000300 dd 18 12 3e 7a c7 4e 3d 5c f4 c9 bb 03 71 92 bd
       0.14267297 0.050483204 -0.006163163 -0.071504615
000310 36 31 e6 3a f8 bb 03 3e 1e 2c 01 3c a0 43 8b bc
       0.0017562273 0.12864673 0.0078840535 -0.01700002
000320 46 5d c8 bc 9d 99 d3 3d 5a 6f 2b bd 46 cc ab bc
       -0.024458539 0.10332034 -0.04185424 -0.020971429
000330 e6 96 7c bb 6b 51 3d bd 3e f4 18 3c ed 54 00 3e
       -0.003854209 -0.046220224 0.009335576 0.12532397
000340 5a 32 29 3d 12 55 f7 3d 3c 35 e7 3d 39 6b fc bc
       0.041307785 0.12076773 0.112894505 -0.030812846
000350 15 d8 23 3d 35 45 ce 3d b3 d9 2e 3d c2 1b c8 3d
       0.040000994 0.10071794 0.042688083 0.097709194
000360 24 de 27 3e 2c 19 49 3d 66 f9 34 3e af 86 0e bc
       0.16393334 0.04909627 0.17673263 -0.008699103
000370 2c b9 07 3e ad 80 23 3e da 7e 34 bd 9a ae 10 3e
       0.13254231 0.15967055 -0.044066288 0.14129105
000380 4a da 87 3d 8f 27 a6 bd 14 df b2 bd fc 13 0f bb
       0.06633432 -0.08113014 -0.08733955 -0.002183198
000390 ba a3 0b be 5a 28 62 3c 4b e0 24 be d2 24 a3 bd
       -0.13636675 0.013803566 -0.16101186 -0.07966007
0003a0 e5 ef 26 bd 76 51 d6 bc 2b a8 15 3e f7 7f fd 3d
       -0.040756125 -0.02616189 0.14614932 0.12377923
0003b0 b4 32 99 3b 61 8a 4b 3e 8c 3a 00 3e 5e da d9 3c
       0.0046752337 0.19877006 0.12522334 0.026593383
0003c0 d9 61 49 3e fe 48 62 3e 12 f0 13 3e c1 e1 e6 3d
       0.19666232 0.22098157 0.14447048 0.11273528
0003d0 4a 29 58 3d d0 5b 82 3d 83 0c 3b bd d4 2a ad 3d
       0.05277375 0.06365168 -0.04566623 0.084554344
0003e0 dc 6f 83 3d 69 6b a6 bc d9 a3 92 bd 0d c3 3d bc
       0.0641782 -0.020314889 -0.07160158 -0.011582148
0003f0 14 00 7e be 65 8c 36 be e3 53 6b be 61 33 65 be
       -0.24804717 -0.17826994 -0.22981219 -0.22382881

conv_block_2.0.bias f4 [10]
000000 3c a2 df bc 5c 30 b7 3b 5b 76 c1 bb a4 df 16 3d
       -0.027299039 0.0055904817 -0.0059040016 0.036834374
000010 41 83 e9 3d 12 d7 af bc 91 4e 84 bc 5d 53 b7 3d
       0.11401988 -0.021464858 -0.016150745 0.08951447
000020 22 d8 d9 bd ae 89 aa 3d
       -0.10636927 0.083270416

conv_block_2.2.weight f4 [10, 10, 3, 3]
000000 a5 dd 04 be 04 f3 ba bd 64 1f 1a be b8 87 c3 bd
       -0.12975176 -0.09128383 -0.15051037 -0.09547371
000010 aa 39 f2 3c ee 2c 14 be 07 17 3c bd 2f 98 83 bd
       0.029568512 -0.14470264 -0.045920398 -0.06425511
000020 48 ea 0e bd 8d 1f 8d 3d c5 b8 83 bd b1 9c 45 bd
       -0.034891397 0.068907835 -0.06431726 -0.048245136
000030 2c be 37 bd d4 48 6e bd bb c7 9c 3d 0f a7 33 bc
       -0.044859096 -0.058174923 0.07655283 -0.010965123
000040 de 91 2f 3d d8 1e b9 bd 2f eb 6f be 64 1a 81 be
       0.04286372 -0.09039086 -0.23429559 -0.25215447
000050 db 12 fc bd f2 25 10 be 21 f2 0e be 72 c0 42 be
       -0.12308284 -0.14076975 -0.13959552 -0.19018725
000060 49 ae 15 be 01 58 85 be fe d9 a5 bd b4 7a 22 3e
       -0.14617266 -0.26043704 -0.08098219 0.1586712
000070 5c da 74 3d ad 86 75 bc 06 e3 9e 3d 2f 6d 25 3e
       0.059778556 -0.0149857225 0.07758145 0.16154931
000080 14 66 93 3c c9 62 27 3e da ea ff 3d 9c d7 0c 3d
       0.01799301 0.16346277 0.12495966 0.03438531
000090 67 81 49 3d dc 70 a3 3b ab a8 01 bc bd 24 3c 3d
       0.049195673 0.004987819 -0.007913749 0.045933474
0000a0 95 27 c7 3d a6 34 e1 3d 29 1e 99 bd 22 fb 74 bd
       0.097243465 0.1099637 -0.07476456 -0.05980981
0000b0 a0 1b 50 3c 9b 22 66 bd 81 47 39 be d3 02 04 be
       0.012701899 -0.056185346 -0.18093683 -0.12891702
0000c0 f6 72 31 be 6e 5c 22 be 3a c6 28 be 88 7a 94 bc
       -0.1732901 -0.15855572 -0.16481867 -0.018124834
0000d0 1a 06 4c bd d5 96 14 be 6c 77 e7 3c 47 ec eb bd
       -0.049810506 -0.14510663 0.028255187 -0.11519676
0000e0 82 37 5e be 75 3c f4 bd 26 27 38 bb 6c 85 23 bd
       -0.21700862 -0.11925594 -0.0028099506 -0.039922163
0000f0 03 9d b1 bd db 3b 12 bd 7b ce 0e be da 16 d4 bc
       -0.08672526 -0.035701614 -0.13945954 -0.025889803
000100 1c f1 86 bd 56 14 73 3c 50 cd 3b 3c f7 44 1f 3d
       -0.06588957 0.014836391 0.0114625245 0.03888413
000110 c3 dd 05 3e 36 6e 04 3e de 4d 00 3e 7d 03 98 3d
       0.13072877 0.12932667 0.12529704 0.0742254
000120 99 2a c6 bd fc e7 12 bd b8 fb f9 bc d8 64 5d bd
       -0.096760936 -0.03586577 -0.030515537 -0.05405125
000130 79 2d bd 3d 63 c8 a7 bd 3b e9 8d 3d 00 4d 0f 3c
       0.09237189 -0.081925176 0.06929251 0.008746386
000140 3e 4a 7e bd 0f be 4c 3b ba c7 6b bd bb e9 ef 3c
       -0.06208252 0.0031241213 -0.05756352 0.029286256
000150 56 ee b0 3d 7b 06 26 3d d2 1c e0 3c c1 4b c0 bd
       0.08639209 0.040533524 0.027357493 -0.09389449
000160 d6 69 50 3b 96 b5 99 3d d8 46 95 3d 09 39 f7 bd
       0.0031801364 0.07505338 0.07288903 -0.120714255
000170 e7 c8 bb bc 7f 45 d6 bd 9c b5 41 3b bf e1 f6 bd
       -0.022922946 -0.10462474 0.002955771 -0.120547764
000180 78 29 4d 3d fc 6a aa 3c ef dd 8f bc ba 07 8d 3d
       0.050088376 0.020802967 -0.01756188 0.06886239
000190 ed ac da bc 12 b7 cc 3d bd 90 ef bd 54 2d d7 bc
       -0.026693786 0.099958554 -0.116975285 -0.026266731
0001a0 c2 2f 7e 3c a8 9c a3 bd 19 88 be bd a3 32 b6 bd
       0.015514316 -0.07988864 -0.09303302 -0.08896377
0001b0 f7 a4 24 be 92 a6 60 be b9 e4 98 bd be 2a a1 be
       -0.16078554 -0.21938542 -0.074655004 -0.31477922
0001c0 2d aa 50 be 14 cc 02 be 12 51 84 be 78 d5 7f be
       -0.20377417 -0.12773162 -0.25843102 -0.24983776
0001d0 9f 07 1e be 82 86 97 bc 25 80 8a 3d fe 48 62 3d
       -0.15432595 -0.018496756 0.06762723 0.055245392
0001e0 2d dc 02 3d 75 5c 8b 3d f3 10 29 3e 0f c1 00 3e
       0.031948257 0.06804744 0.16510372 0.12573646
0001f0 89 c7 07 3e 29 ac 8c bd e8 ea 0f 3e f0 3d d9 38
       0.1325971 -0.068687744 0.14054453 0.00010358903
000200 5c ad 0f 3d ac 31 fa 3c c6 7b 0a bc 28 7a f4 bc
       0.035077438 0.030541264 -0.008452361 -0.029843405
000210 0c 98 03 3e 98 9d a8 3d 8d 2a db 3d ec f3 33 be
       0.1285097 0.082331836 0.10701475 -0.17573518
000220 1b de ea bd 92 55 f9 bc 06 39 18 be 64 5a bc bd
       -0.114681445 -0.03043631 -0.14865503 -0.09196928
000230 e3 6d 33 be 77 7c c0 bd 1f 8d 8d bd 4f de c0 bc
       -0.17522387 -0.0939874 -0.06911682 -0.023543505
000240 88 81 cc bd d1 0a 46 be 9e 2d 3b be e6 e7 c1 bd
       -0.099856436 -0.19340064 -0.1827912 -0.09468059
000250 e6 aa 02 be 65 92 6a bd d4 e4 c4 bd 2e 74 aa bd
       -0.12760505 -0.05726852 -0.09613958 -0.08322941
000260 a1 14 47 bd fc 86 00 3e 53 89 7a bc cd 7f 8a bb
       -0.048603658 0.12551492 -0.01529153 -0.004226661
000270 21 00 03 bc ee 0c 29 3d 2d 31 44 3d 87 57 92 bd
       -0.007995636 0.041272096 0.04789846 -0.07145601
000280 59 f6 28 3d 8f d7 b6 3d ae 5d d5 3c ff eb 83 3d
       0.04125056 0.08927833 0.026045647 0.06441497
000290 8e 20 a8 bd f9 08 ce bd 5d da 5e bd 50 db 9a bd
       -0.08209334 -0.10060305 -0.054407466 -0.07561362
0002a0 c0 e3 fe ba 68 b5 81 bd 2a 63 71 bd 06 8e a2 3c
       -0.0019446537 -0.063334286 -0.05893246 0.019843113
0002b0 68 16 78 bd 85 20 8e 3d 27 f2 b3 3d 4f e7 29 bc
       -0.060568243 0.06939796 0.08786421 -0.01037009
0002c0 33 17 da 3d 6d 43 94 3d d4 61 7a 3d e2 f9 9c 3d
       0.10648956 0.07239423 0.061128452 0.07664849
0002d0 44 c7 35 be 6e f6 17 ba a9 70 6b bd 6e 97 cc 3c
       -0.17751795 -0.0005796914 -0.057480488 0.024974551
0002e0 65 9b 0e bd 7f e2 f0 bb 3b e0 d2 3c 2a 9a 0f bc
       -0.034816165 -0.007351219 0.025741687 -0.008764783
0002f0 05 b6 91 bb a3 4d 0c be 56 a9 11 be 36 6b 05 bd
       -0.0044467472 -0.13701491 -0.14224753 -0.032572947
000300 da ce 0c be aa 29 68 bc bb a9 21 3d be 9f 94 3d
       -0.13750783 -0.01417009 0.03946851 0.07257031
000310 f8 83 fd bc b2 45 da bd 23 e9 9b be 6b 71 0f be
       -0.030946717 -0.106578246 -0.30451307 -0.1400811
000320 78 cb 0a be 4b 30 37 be 71 09 73 be 82 f0 10 be
       -0.1355418 -0.17889516 -0.2373407 -0.14154246
000330 8d 30 14 be 40 8d e4 bd 9f 6e 9b bc e8 ab 1a 3e
       -0.14471646 -0.11159754 -0.018973647 0.1510464
000340 99 19 66 3c dc d4 5c bd 67 f5 b7 3b c7 4b 17 bd
       0.014044189 -0.053913936 0.005613971 -0.0369375
000350 76 f9 1e 3d 18 23 8b 3d 7d 12 ec 3d 2e 61 2f 3d
       0.038812123 0.06793803 0.11526964 0.042817287
000360 b7 97 c0 3d a4 97 4a 3b a7 8b 92 3d 74 14 de 3d
       0.09403937 0.0030913139 0.07155543 0.10843745
000370 97 ee 89 bd 1a 45 16 bd 49 e0 b5 3c 25 5b 7c 3d
       -0.067349605 -0.036686994 0.022201674 0.06161036
000380 5e 9b d9 bc 68 78 13 be a5 16 ce bd ba 6c 09 be
       -0.026563343 -0.144014 -0.10062913 -0.13420382
000390 33 e2 30 be d2 73 af bd d5 60 bd bd 94 d9 46 bc
       -0.17273788 -0.08567013 -0.09246985 -0.012136836
0003a0 1b 87 42 bc a3 1f e3 bc 1d 5a 24 be 6f a9 1c be
       -0.011873032 -0.027725047 -0.1605 -0.15299009
0003b0 65 29 3c bd 0a ed 22 be 4d b0 ed bd 55 9c f7 bd
       -0.045937914 -0.15910736 -0.11605892 -0.12090365
0003c0 97 1a cb bd 82 da 00 be 74 f5 1c bd 13 c0 8c 3d
       -0.09917181 -0.12583354 -0.03832002 0.06872573
0003d0 dd 66 02 3d d2 0f 4e bb 66 5d c1 bc 45 a5 e5 bc
       0.03183638 -0.0031442535 -0.023604106 -0.028032908
0003e0 f3 01 8f 3d 3e df b8 3c f7 5d 89 3c 4f 5b 32 bd
       0.06982794 0.022567388 0.016768439 -0.04354411
0003f0 d8 f6 0c bd ec 14 1c bc 97 c3 b9 bd cf 47 70 bd
       -0.034415096 -0.009526473 -0.09070509 -0.058662232

conv_block_2.2.bias f4 [10]
000000 c5 e3 ad 3d a0 cd c9 3c 57 14 8d 3d 01 20 58 bd
       0.08490709 0.024634182 0.06888645 -0.052764896
000010 3e da 2d 3d 6d 57 89 3d c8 60 e7 3d 4b 28 0d 3d
       0.04244446 0.06706128 0.112977564 0.034462254
000020 92 92 6a 3c e2 d3 87 3b
       0.014317172 0.0041451314

classifier.1.weight f4 [2, 1690]
000000 c9 d6 47 be 09 47 93 bd 13 a7 45 bc c2 41 a1 bd
       -0.19515528 -0.07191283 -0.012063759 -0.078738704
000010 ac 84 f7 bd ec a9 21 be 8e a4 8e bd fe fd 9f bd
       -0.12085852 -0.15787476 -0.0696498 -0.07812117
000020 20 26 c0 bd 18 6e aa bd 3e ff b3 bd 8e 64 05 be
       -0.09382272 -0.0832178 -0.08788918 -0.1302664
000030 61 8e 6e be 3e 1c 7f bd 66 29 70 bc f4 79 08 3d
       -0.232965 -0.062282793 -0.014658308 0.03331943
000040 1d 4a 36 bd fc 3e 4f bd 45 87 33 bc 13 73 2e 3d
       -0.044504274 -0.050597176 -0.010957544 0.042590212
000050 b6 e3 ea 3c 0d 04 a3 ba 8b 02 88 bc b2 07 9e bc
       0.028673034 -0.001243712 -0.016602775 -0.019290779
000060 08 64 3a bd 82 a5 30 be 85 fa 8d bd 6e bf 8c 3c
       -0.045505553 -0.17250636 -0.069325484 0.017181125
000070 e3 4f ad bc 41 3c c5 bc bd be 10 bd 20 23 14 bd
       -0.021156257 -0.024076583 -0.035338152 -0.03616631
000080 77 9a 4c bc 99 1e e6 3c b9 6d 21 bc 4c 5e 89 3c
       -0.012487999 0.028090762 -0.00985282 0.016768597
000090 0d b2 aa 3c c1 1f 51 bc 07 b6 ec bd 7b 66 8a bd
       0.020836854 -0.012763918 -0.115581565 -0.06757828
0000a0 99 a5 c2 3b bc 91 2f bd 6f 07 a8 bb 0d 95 db bc
       0.005940151 -0.042863593 -0.0051278393 -0.026804471
0000b0 39 32 41 bc 5b 64 1f bd 3b cf 1d bd 18 38 7d bc
       -0.011791759 -0.038914066 -0.03852771 -0.015455268
0000c0 da 19 6b bc d4 9e 15 3d 63 d0 6f bc f2 90 99 bd
       -0.014349425 0.036528423 -0.014637086 -0.07498349
0000d0 86 1c bb bd 46 f5 4d bd d7 81 24 bc 78 c0 a1 bc
       -0.091363 -0.05028274 -0.010040722 -0.019745097
0000e0 28 19 8e bc 81 40 33 bd 2f ff 6d bd 0a 30 ed bd
       -0.01734598 -0.043762688 -0.05810469 -0.11581428
0000f0 67 58 a8 bd ee fa 12 bd 03 8d b4 bb 5c de 43 bc
       -0.082199864 -0.035883836 -0.005509974 -0.01195487
000100 54 3e e4 bd ea 87 55 bd 96 10 11 bd a2 51 7f bd
       -0.11144701 -0.05213157 -0.03541621 -0.06233371
000110 60 53 62 bd fd 21 41 bd 6a be cf bc 18 a4 38 bd
       -0.055255294 -0.047151554 -0.025359351 -0.045078367
000120 dd fe 51 bd de 5b 85 bd 0a c5 63 bd 82 70 91 3b
       -0.051268447 -0.06511663 -0.055607833 0.004438461
000130 0b 99 33 bd 77 4b 92 bd cd 72 28 bd 52 91 86 bb
       -0.043847125 -0.071433 -0.041125108 -0.004106679
000140 f9 18 df bc ea 43 0b bd 3f 95 10 bd 39 d0 04 bd
       -0.027233588 -0.034000315 -0.035298582 -0.03242514
000150 3f 5a 29 bd 38 87 8e bd 4e 0b 44 bd 21 d9 d4 bc
       -0.04134583 -0.06959385 -0.047862343 -0.025982441
000160 39 42 e4 3a 65 69 96 bc 55 73 ad bd c3 b6 d5 bd
       0.0017414755 -0.018360803 -0.084692635 -0.1043525
000170 3f c4 99 bc b3 b1 32 bc ce 7f 07 bb e3 7b 82 bc
       -0.018770335 -0.010906625 -0.0020675543 -0.015928214
000180 5d 06 81 bc 21 1b 11 bd 74 06 25 bd 07 82 04 bb
       -0.015750105 -0.035426263 -0.040289357 -0.0020219104
000190 ab d1 0b bd 92 20 ce bb fe ba bd bc b4 22 12 be
       -0.0341355 -0.006290504 -0.023160454 -0.1427105
0001a0 f0 67 e3 bd 4d e4 1d bd 8b 79 25 3c db f3 4e 3d
       -0.11103809 -0.038547803 0.010099779 0.050525527
0001b0 32 b7 33 3d 4e eb 99 3b b0 dd 01 bd ae 8c 77 bc
       0.04387588 0.00469724 -0.03170556 -0.015109224
0001c0 d5 e4 ab 3b f5 57 06 3d fb 7b 3d bc 10 a5 95 bc
       0.0052457848 0.032798726 -0.011565204 -0.018267184
0001d0 8c 2d 24 be 0d 87 f6 bd 26 20 be bc fe d3 88 3c
       -0.16033 -0.12037478 -0.023208689 0.016702648
0001e0 94 b2 b6 bc f2 b7 e0 bc e5 9d 17 bd 3a 9a 3d bc
       -0.02230195 -0.027431462 -0.037015814 -0.011572415
0001f0 ab bf 51 bd a7 16 a2 bc 35 e0 f7 bb b1 4c a0 bc
       -0.05120818 -0.019786192 -0.0075645694 -0.01956782
000200 c8 9a 1a bd c3 97 14 be ab 08 85 bd 4a 72 d1 3b
       -0.037745267 -0.14511018 -0.06495794 0.006391798
000210 78 f1 2e bd 76 5e b6 bc ee 3e ee bc 16 a4 0e bd
       -0.04271075 -0.02226184 -0.029082742 -0.034824453
000220 e3 9b 1e 3c b9 bd 1d bd c5 7b 70 bd e6 5b af bd
       0.009680721 -0.03851101 -0.058711786 -0.0856245
000230 f4 34 81 bd 94 97 b7 3a b9 9b 18 be fa e9 5d bd
       -0.06308928 0.0014006966 -0.14903153 -0.054178216
000240 31 b4 93 3a 1a 19 ea bc 9c df 8c ba 78 72 8c bb
       0.0011268911 -0.028576422 -0.0010747793 -0.0042861067
000250 30 74 3e bc a4 31 08 bd 07 a7 eb bc c6 a3 92 bc
       -0.011624381 -0.033250466 -0.028766168 -0.017900359
000260 a6 c7 82 bc 6b 70 68 bd 3d 78 2b bd 60 4b 11 be
       -0.01596434 -0.056747835 -0.041862715 -0.1418891
000270 18 1e 15 be c4 eb 01 be fa 46 a7 bd 22 f0 aa bd
       -0.14562261 -0.12687594 -0.081678346 -0.08346583
000280 08 1c 66 bd f7 0f 78 bd ef 8e ba bd ff b3 ea bc
       -0.056179076 -0.0605621 -0.09109294 -0.028650282
000290 fa 8b c8 bc 71 05 6a bc 00 4e 92 bd 75 7b d0 bd
       -0.024480809 -0.014283524 -0.071437836 -0.101797976
0002a0 0e 89 7f be da 33 79 be a8 6b 8e bd fa 95 4e bd
       -0.24954626 -0.24336186 -0.069541276 -0.050435998
0002b0 92 4b 16 bd 17 a0 c4 bd 2c a4 1e be f2 49 cc bd
       -0.036693163 -0.09600847 -0.15492314 -0.099750414
0002c0 1c 66 07 bd 62 37 94 bd 48 df b5 bd b1 d2 39 bd
       -0.033056363 -0.07237126 -0.08880478 -0.045366947
0002d0 5c 72 cb bd ae d9 3f be 6f a0 bd bd b0 8e 8a bb
       -0.09933922 -0.18735382 -0.09259116 -0.0042284355
0002e0 2b 80 76 bc 2f 2c 0f bd 5b 8a 35 bd 0c 7b c0 bc
       -0.015045206 -0.034954246 -0.0443214 -0.023496173
0002f0 3e 24 3d 3b 48 1f fa 3c cc b2 33 3b f7 b7 fe bc
       0.0028860713 0.030532494 0.0027419804 -0.03109358
000300 1e 41 ce bc bc 13 6c bc e7 38 11 be 09 43 da bd
       -0.025177535 -0.014409002 -0.14181863 -0.10657317
000310 00 b1 01 bc 40 34 a1 bc 6e 13 05 bd c7 6e 9f bb
       -0.007915735 -0.019678235 -0.032489233 -0.0048655006
000320 bf 6a 27 bd 34 bf ca bc 21 cc f4 3b d3 fe 4f 3c
       -0.040873285 -0.024749376 0.007470623 0.012695032
000330 97 de 0c 3d 69 f7 f1 ba cf 58 59 3a 19 a1 bf bd
       0.034391966 -0.0018460575 0.00082911266 -0.09356899
000340 cf fb e6 bd ae e3 93 bc 48 2f e5 3b 18 8d d9 bb
       -0.112784974 -0.018052902 0.0069941618 -0.006639134
000350 8e c7 67 bc cf ef eb 3c ed a9 41 bd 50 b0 e3 bc
       -0.014146699 0.028800873 -0.047281194 -0.027794033
000360 30 c4 99 3c 7f f3 2a 3d 77 ca 0d 3d f7 9b 9f ba
       0.018770307 0.041736122 0.034616914 -0.0012177218
000370 78 94 96 bd eb 26 05 be a7 cb 69 bd b2 15 3a bc
       -0.07352537 -0.13003127 -0.057078984 -0.011357712
000380 a4 10 71 bc e2 38 4c bc 7b 7c a1 3c f8 29 c7 bc
       -0.01471344 -0.012464734 0.019712677 -0.024312004
000390 0b bb c8 bd b0 b3 84 bd 2d ee 12 bd 83 33 00 3c
       -0.098013006 -0.06479585 -0.035871673 0.007824781
0003a0 de 05 88 bc 0a 2f 91 bd dd 23 d1 bd e7 8f fb bb
       -0.01660436 -0.0708905 -0.102119185 -0.0076770666
0003b0 bc 62 36 bd 5e f2 34 bd dc 36 14 3c 96 33 a6 3b
       -0.044527754 -0.04417645 0.009046283 0.0050720675
0003c0 39 ed 76 bd 63 cc db bc bf 24 05 bd f6 4c 1b bd
       -0.060284827 -0.026830858 -0.032505747 -0.037915193
0003d0 52 a9 e1 3a 08 2d 28 39 e1 55 86 bd b4 37 a9 bd
       0.0017216599 0.00016038504 -0.06559349 -0.08262578
0003e0 65 97 76 3b 3a 17 6a 3c bb 34 5f bd 80 d6 93 bc
       0.003762686 0.014287764 -0.054493647 -0.018046618
0003f0 7c 2c c4 bb cb 36 a0 bc 56 48 88 bd fe 62 9d bc
       -0.0059867483 -0.019557377 -0.06654422 -0.019212242

classifier.1.bias f4 [2]
000000 fc c5 f0 3d 39 a7 f6 bd
       0.117565125 -0.12043614
